matlab/traced_model.pt (torch, 36528 bytes, 4 tensors)

weight f4 [30, 196]
0	0xbd89b802	-0.0672455
1	0x3d2f75cc	0.04283695
2	0xbc70ae9e	-0.0146900695
3	0x3d15bc6f	0.036556657
4	0x3c363d34	0.01112299
5	0xbbabb744	-0.005240353
6	0x3cbe0568	0.023195937
7	0x3c27a4b3	0.010232138
8	0x3ca7a08b	0.020462295
9	0xbcaad5cb	-0.020853898
10	0xba690934	-0.0008889616
11	0xbbc7543b	-0.006083039
12	0x3c29a037	0.01035314
13	0xb9959a4a	-0.0002853445
14	0x3d7fc198	0.062440485
15	0x3cac255e	0.021013912
16	0xbcb99bde	-0.022657331
17	0xbd071381	-0.032977585
18	0xbcc8a097	-0.024490638
19	0xbc491a61	-0.012274356
20	0x3c475c22	0.012167962
21	0x3e617abb	0.22019474
22	0x3ec33504	0.38126385
23	0x3edf6632	0.43632656
24	0x3e2fcdc4	0.17168337
25	0x3e2b0b87	0.16703616
26	0x3d2225a9	0.039586697
27	0x3d8b0acb	0.06789168
28	0x3d410f00	0.047133446
29	0xbd8b75d8	-0.06809586
30	0xbd553cac	-0.052059814
31	0xbd61a7a0	-0.0550915
32	0xbda3208f	-0.079651944
33	0xbeced421	-0.40396217
34	0xbefa2e6d	-0.48863545
35	0xbeb1324e	-0.34608692
36	0xbeb696db	-0.3566197
37	0xbe55f58b	-0.20894448
38	0x3dc41f17	0.095762424
39	0x3e393853	0.18087892
40	0xbd2ca20a	-0.04214672
41	0x3ce926b8	0.028460845
42	0xbd16ed74	-0.036847547
43	0x3d24abbd	0.040202845
44	0x3d95cdcc	0.07314643
45	0x3e7c0895	0.24612649
46	0x3d93a76a	0.07209666
47	0xbd91c47b	-0.07117554
48	0xbefa38bc	-0.4887141
49	0xbf339e4e	-0.7016343
50	0xbf5cf873	-0.86316603
51	0xbf5fb2e8	-0.87382364
52	0xbf18bd48	-0.5966382
53	0xbe2aec61	-0.16691734
54	0xbe66020b	-0.22461717
55	0xbc8aa21c	-0.016923003
56	0xbd193e0e	-0.037412696
57	0x3e105070	0.14093184
58	0x3e694c20	0.22782946
59	0x3e7ed5da	0.24886265
60	0x3cbfe192	0.02342299
61	0x3dcf453d	0.10120628
62	0x3f01e370	0.5073767
63	0x3ea2d228	0.31800961
64	0xbf301a39	-0.6879001
65	0xbf4be09d	-0.7963961
66	0xbeec5830	-0.46161032
67	0xbf659b9d	-0.8969057
68	0xbf62f801	-0.88659674
69	0xbe0742d9	-0.13209094
70	0x3d0faca9	0.03507677
71	0x3df60235	0.1201214
72	0x3e62fbcc	0.22166365
73	0x3dccbb64	0.099966794
74	0x3e69dfd4	0.2283929
75	0xbd672a8e	-0.056437068
76	0xbd0fd2f5	-0.035113294
77	0x3e7d6810	0.24746728
78	0x3e37a632	0.17934492
79	0xbe4f21b9	-0.20227708
80	0x3d97ba6a	0.074086025
81	0xbf0510fa	-0.5197903
82	0xbf3902b0	-0.72269726
83	0xbcf05fba	-0.029342521
84	0xbab0f5be	-0.0013500971
85	0x3de6ef57	0.11276119
86	0x3e2eec47	0.1708232
87	0x3ea34a4b	0.3189262
88	0x3ea432ae	0.32069916
89	0xbe64e613	-0.22353391
90	0xbf67651b	-0.9038865
91	0xbe009d04	-0.12559897
92	0x3f1c77e9	0.6112047
93	0x3ee38408	0.4443667
94	0x3ef8cc3f	0.48593327
95	0x3ec72d54	0.3890177
96	0x3d8ce82b	0.0688022
97	0xbd513746	-0.051078103
98	0x3d2834b5	0.04106589
99	0x3d7ec4ae	0.062199287
100	0x3d52a461	0.051426295
101	0x3ec21c9a	0.37912446
102	0xbe7c0a6c	-0.2461335
103	0xbf4048fb	-0.7511136
104	0xbf25cd0c	-0.64766
105	0x3f140819	0.57824856
106	0x3ed180dd	0.40918627
107	0x3f236d65	0.638388
108	0x3f2f8037	0.68555015
109	0x3e9cd069	0.30627754
110	0xbd8eceac	-0.06973013
111	0xbb9316aa	-0.0044887858
112	0x3d51463e	0.05109238
113	0xbc48c453	-0.012253839
114	0xbeb15897	-0.346379
115	0xbb4b2736	-0.0030998713
116	0xbec62446	-0.3869955
117	0xbf1506ac	-0.58213305
118	0x3e9d21df	0.30689904
119	0x3fa82737	1.3136967
120	0x3e9ae6e9	0.30254295
121	0x3e4f0c3a	0.20219508
122	0x3e3f35e6	0.18672904
123	0xbe73e9e6	-0.23819694
124	0xbe47313e	-0.19452378
125	0x3c4866b2	0.012231516
126	0xbd323bfd	-0.04351424
127	0xbd8ebbe2	-0.069694296
128	0xbf22bfdb	-0.63574
129	0xbfab94d7	-1.3404797
130	0xbf9ef459	-1.2418319
131	0xbe9bae37	-0.30406353
132	0x3f9e0e50	1.2348118
133	0x3f3bb10d	0.73317033
134	0xbe3f3aa3	-0.18674712
135	0xbe3c4084	-0.18383986
136	0xbeb39075	-0.3507115
137	0xbf164041	-0.58691794
138	0xbe7fb42d	-0.24971075
139	0x3c7efa19	0.015562558
140	0x3cb39403	0.021921163
141	0xbddbe324	-0.10736683
142	0xbf0aaac6	-0.5416683
143	0xbf95ff8e	-1.1718614
144	0xbf930d53	-1.1488441
145	0xbe91134d	-0.28335038
146	0x3f316cd6	0.69306695
147	0x3f5693c7	0.8381924
148	0x3eb4d6de	0.3532018
149	0xbe94656f	-0.28983638
150	0xbf34bd93	-0.7060177
151	0xbf1064a1	-0.5640355
152	0xbdc31ee3	-0.095273755
153	0xbd03ea1d	-0.03220569
154	0x3d500aff	0.050791737
155	0xbdaab09d	-0.083344676
156	0xbe08deba	-0.13366213
157	0xbde1afdd	-0.110198714
158	0xbee93ef6	-0.45555848
159	0xbf490bf8	-0.7853389
160	0xbf70785a	-0.9393364
161	0xbf1fceab	-0.62424725
162	0xbe6c77b6	-0.23092541
163	0xbe60965b	-0.21932356
164	0xbeaa30fc	-0.33240497
165	0xbe6d441b	-0.23170511
166	0xbd299466	-0.04140129
167	0x3d040220	0.03222859
168	0x3c55cc81	0.013049246
169	0x3c5866bb	0.013208087
170	0x3e3f5ca0	0.18687677
171	0x3eb5e669	0.35527351
172	0x3e8f628d	0.28004876
173	0x3e38c018	0.18042028
174	0xbd9296cb	-0.07157668
175	0xbe856a0a	-0.26057464
176	0xbe77b9f3	-0.24192028
177	0xbd8487bb	-0.06471201
178	0xbe170d62	-0.14751199
179	0xbd942146	-0.07232909
180	0xbd67b29a	-0.056566812
181	0x3d8691f1	0.06570805
182	0xbd7cef25	-0.061751503
183	0xbd6504b5	-0.055912692
184	0xb7beb1ba	-2.2732525e-05
185	0xbd06a7d7	-0.03287491
186	0x3d57f45e	0.05272328
187	0xbcf607b4	-0.03003297
188	0xbda7c55d	-0.08191941
189	0x3d0ca452	0.034336396
190	0x3db77870	0.089585185
191	0xbd25444f	-0.040348347
192	0xbb5ed4ef	-0.003400143
193	0x3d46c216	0.04852494
194	0x3d8e9163	0.06961324
195	0xbd4cc7a1	-0.04999507
196	0x3c8db737	0.017299278
197	0xbd5855ce	-0.052816205
198	0x3d79e139	0.061005805
199	0xbcbe35a3	-0.023218935
200	0x3d471ef0	0.04861349
201	0x3c357239	0.011074596
202	0x3c311870	0.010809049
203	0x3c5de83e	0.01354414
204	0x3cd2f8dc	0.025753431
205	0x3d358885	0.04431965
206	0x3c74e0e0	0.0149461925
207	0x3cc4b96c	0.024014197
208	0xbd83966e	-0.064251766
209	0x3d552635	0.05203839
210	0x3d7f151e	0.062276
211	0x3d742a85	0.059610862
212	0x3d605062	0.05476416
213	0xbd2794f4	-0.040913537
214	0xbcef328f	-0.029198913
215	0x3e09ffec	0.13476533
216	0x3e5cfbf3	0.21580486
217	0x3f07f4ea	0.53108084
218	0x3ece34e7	0.40274736
219	0x3e9a5b0f	0.30147597
220	0x3e1d5669	0.15364994
221	0xbbe3b793	-0.006949374
222	0xbbbe18b9	-0.005801287
223	0x3d576194	0.052583292
224	0x3d67cf9b	0.056594472
225	0x3d9b0f6d	0.075713016
226	0x3da1ea5e	0.0790603
227	0x3ddf74a2	0.10910918
228	0x3e835e33	0.25657806
229	0x3e32468c	0.17409724
230	0x3e7926da	0.24331227
231	0x3e65a3a4	0.22425705
232	0x3df42836	0.11921732
233	0x3e874b76	0.2642476
234	0xbd751aae	-0.059839897
235	0xbe50ee38	-0.20403373
236	0xbd7cfe26	-0.061765812
237	0xbb0072c6	-0.001959966
238	0x3cf23adc	0.029569082
239	0x3c7d2aa6	0.015452063
240	0x3db7d63c	0.08976409
241	0x3dcaa21c	0.09894201
242	0x3c28f16a	0.010311464
243	0xbd8e8e05	-0.06960682
244	0xbab90d50	-0.0014118347
245	0x3f2c44b5	0.6729234
246	0x3f675221	0.90359694
247	0x3ed936e5	0.42424694
248	0x3a927900	0.0011174977
249	0xbe857ad8	-0.26070285
250	0xbd4af6c2	-0.049551733
251	0xbd7b296a	-0.061318792
252	0x3d19bd7e	0.03753423
253	0x3d5cd848	0.0539172
254	0x3c800d33	0.015631294
255	0xbb2058cb	-0.0024466987

bias f4 [30]
0	0xbea87251	-0.32899716
1	0xbf2745da	-0.6534096
2	0xbf0868bf	-0.5328483
3	0xbf019cb2	-0.50629723
4	0xbee7a4ad	-0.45242825
5	0xbf6fc9d1	-0.9366732
6	0xbe7d91ea	-0.24762693
7	0xbf65df78	-0.8979411
8	0xbfa91605	-1.3209845
9	0xbeb8f7f2	-0.36126667
10	0x3e1751b9	0.14777268
11	0xbf1bccb0	-0.60859203
12	0xbf360859	-0.7110649
13	0xbe8c8049	-0.27441624
14	0x3ecddce4	0.4020759
15	0xbf12727a	-0.5720593
16	0xbf6eeeb0	-0.9333296
17	0xbf0412a2	-0.5159093
18	0xbf848085	-1.0351721
19	0xbfcade8b	-1.5849165
20	0xbee43bdb	-0.44576916
21	0xbe010faf	-0.12603639
22	0xbc9eed34	-0.019400217
23	0xbf2e0334	-0.6797364
24	0xbe930121	-0.287118
25	0x3c36d95e	0.011160223
26	0xbef544cb	-0.47904047
27	0xbf3272f0	-0.6970663
28	0x3e2675a3	0.16255812
29	0xbee6bfd6	-0.45068234

weight f4 [10, 30]
0	0xbfab0f2c	-1.3364005
1	0x3f8d9aac	1.1062827
2	0xc0052515	-2.0803883
3	0xbeed5a27	-0.46357843
4	0xbfa5ebae	-1.2962549
5	0x4000e051	2.0136912
6	0xc0566812	-3.350102
7	0x3f2d8b19	0.6779037
8	0xc07bcc94	-3.9343615
9	0xc0086083	-2.1308906
10	0xbe7c2713	-0.2462428
11	0xbef3d06b	-0.47619948
12	0xbfdd52a8	-1.729085
13	0xbf4036c5	-0.7508357
14	0x405b4dd2	3.4266248
15	0x3fb7e925	1.4368025
16	0xbfe0b72d	-1.7555901
17	0xc020b782	-2.5112004
18	0xbf2ee140	-0.68312454
19	0xbfacbfb9	-1.3496009
20	0xbf99e94d	-1.2024323
21	0xbfd0a256	-1.6299541
22	0x405ddd17	3.4666193
23	0xbf2feca8	-0.68720484
24	0x3fba5d7d	1.455978
25	0x3fdc83f4	1.7227769
26	0xc0063cdd	-2.0974648
27	0xbfcda7ca	-1.606683
28	0xbf02233c	-0.50835013
29	0xbfc25a79	-1.518386
30	0xbfb35430	-1.4010067
31	0x3d80cb81	0.06288815
32	0xc0253624	-2.5814295
33	0x3f1fe6b2	0.6246139
34	0xbe915652	-0.2838617
35	0x3f384d64	0.7199309
36	0xc0801735	-4.002833
37	0x3f8dda02	1.1082156
38	0x3e6509d0	0.22367024
39	0x3fd4ac36	1.6615055
40	0x3fbd9742	1.4811785
41	0x3f3d878d	0.7403496
42	0xbf3d5e4b	-0.73972005
43	0xc064dc1d	-3.5759346
44	0xc0584ca9	-3.379679
45	0xbf88e752	-1.0695593
46	0xbe9bd813	-0.3043829
47	0x3f01cbd8	0.50701666
48	0xc00da5ce	-2.213245
49	0x3c4660bf	0.012108027
50	0x3f950cc8	1.1644526
51	0xbfc14ab4	-1.5100923
52	0x3f1fbfb9	0.6240192
53	0xbfa48b5e	-1.2855031
54	0x3f5af73b	0.85533494
55	0xc0606942	-3.5064244
56	0xbfcaddbb	-1.5848917
57	0x404f9d43	3.2439735
58	0xbff53708	-1.9157419
59	0xc0146a24	-2.3189783
60	0x3fee474e	1.861551
61	0xbf757115	-0.95875674
62	0xc004ee23	-2.0770347
63	0xbed7c840	-0.42144966
64	0xbe8a7621	-0.2704325
65	0x3b8f5c80	0.0043750405
66	0x3f8e9e71	1.1142102
67	0xc009531e	-2.145698
68	0x3f308c9b	0.68964547
69	0xbfcf75c6	-1.6207817
70	0x3e879165	0.26478115
71	0xbff54194	-1.9160638
72	0xbf699bb2	-0.912532
73	0x403e5109	2.973696
74	0x3fd1e637	1.6398381
75	0xc01057cc	-2.2553587
76	0xc01c0cd2	-2.4382825
77	0x3f571043	0.8400919
78	0x3f79aeb4	0.975322
79	0x4001c188	2.0274372
80	0xbd9a28fc	-0.075273484
81	0x40263abb	2.5973346
82	0xc0033191	-2.0499003
83	0x3fd609a7	1.6721696
84	0x3efc938e	0.49331325
85	0xc0125240	-2.2862701
86	0xbf667460	-0.90021324
87	0xbf105162	-0.5637418
88	0xbeb34c97	-0.3501937
89	0xbfee0cca	-1.8597653
90	0x3fd6bb93	1.6775993
91	0xbf3fdfbd	-0.7495077
92	0xc001ad99	-2.0262206
93	0xbe950326	-0.29103965
94	0x401750cf	2.3643072
95	0x3fd21342	1.6412127
96	0xbfdf55f2	-1.7448103
97	0x3e15e1f1	0.14636971
98	0xc0249a29	-2.5719092
99	0x3e78526c	0.24250191
100	0x3ec25e23	0.37962446
101	0x3f145259	0.5793815
102	0x3fc21029	1.5161182
103	0xbfad82f1	-1.3555585
104	0xbfabde62	-1.3427241
105	0x3f9493ff	1.1607665
106	0x3d3d0a50	0.046152413
107	0xbf87dbad	-1.0613915
108	0xbe8e673f	-0.27813146
109	0xbf8f2759	-1.1183883
110	0xc00f896b	-2.2427623
111	0xbf671c74	-0.9027779
112	0xbfb8f2ee	-1.4449136
113	0x3f34e802	0.70666516
114	0xc00f6f39	-2.2411635
115	0x3f3b7aae	0.7323407
116	0xbe2787a8	-0.16360343
117	0xbfa50086	-1.2890785
118	0xc03b1bb3	-2.9235656
119	0x4005bd04	2.0896616
120	0xc04d744a	-3.2102227
121	0xbff8cc94	-1.9437432
122	0x3e66b4a6	0.2252985
123	0x3e6b0f04	0.22954947
124	0x3f953d03	1.1659244
125	0xbfa1c286	-1.2637489
126	0x3fb1a2d7	1.387782
127	0xc00c3376	-2.190641
128	0xbed2d6dd	-0.41179553
129	0x406b3d71	3.675625
130	0x40262f96	2.5966544
131	0xbf411e94	-0.75437284
132	0xbf14dbdb	-0.5814797
133	0x404ccbb4	3.199933
134	0x3fa3f636	1.2809513
135	0xc015b81c	-2.3393621
136	0xbf078254	-0.5293324
137	0x3fa5dd53	1.2958168
138	0xbf807d3a	-1.0038216
139	0xc0253eac	-2.5819502
140	0xc03b0f7e	-2.9228206
141	0xbf946a37	-1.1594914
142	0x3fa9c487	1.32631
143	0xc01e178f	-2.470188
144	0xbf008147	-0.5019726
145	0xbf4a0563	-0.7891447
146	0x3fd301c0	1.6484909
147	0xbf19c1c5	-0.60061294
148	0x3fe3e46e	1.7804086
149	0x3e061b12	0.13096264
150	0x3f85f026	1.0463912
151	0xbf963e96	-1.173785
152	0xbfc631cd	-1.5483948
153	0xbd9a5c0e	-0.07537089
154	0xc030c061	-2.7617419
155	0xc0469438	-3.1027966
156	0xbfa981b5	-1.3242708
157	0x3fe352c6	1.7759635
158	0xc013179d	-2.2983162
159	0xbf03aa2a	-0.51431525
160	0x3f8c6a1a	1.096988
161	0xbf90382b	-1.1267141
162	0xbf53d8c6	-0.82752645
163	0xbf35836b	-0.7090365
164	0xc042fda4	-3.046731
165	0xbee4fff4	-0.44726527
166	0x3ecbf27a	0.39833432
167	0x3f569492	0.8382045
168	0x3f3bf976	0.7342752
169	0xbf05904b	-0.521733
170	0x40039000	2.055664
171	0xbf4cad30	-0.79951763
172	0xbfefa2a6	-1.8721511
173	0xbfa4c610	-1.2872944
174	0xbd156d19	-0.036480997
175	0x3ff725bc	1.9308391
176	0x40274dd7	2.614126
177	0xbf2ae7dd	-0.66760045
178	0x3ecf7208	0.40516686
179	0xc022ffa5	-2.5468533
180	0xc0109e87	-2.2596757
181	0x3f5be03d	0.85889035
182	0x3fd5a0aa	1.6689656
183	0xc00f1a84	-2.2359934
184	0xc008f3b0	-2.1398735
185	0xbffde77b	-1.9836267
186	0x3f970b15	1.1800257
187	0xbe93ea6b	-0.28889784
188	0x3eb8225d	0.35963717
189	0xc027987b	-2.6186817
190	0xbda95868	-0.08268815
191	0x400213b5	2.0324528
192	0x3ec8b44d	0.3920006
193	0xbff45e29	-1.9091235
194	0x3f1968b3	0.59925383
195	0xc009d033	-2.1533325
196	0xbe9f5ff2	-0.31127888
197	0xc01cce02	-2.4500737
198	0x3fa8009e	1.3125188
199	0x3e3e1a68	0.1856476
200	0x3f26ae4c	0.65109706
201	0xc04045cb	-3.0042598
202	0xc0062922	-2.0962605
203	0x3f4807bf	0.7813682
204	0x3e896ade	0.26839346
205	0xbfbe4713	-1.486544
206	0xbfc99e6d	-1.5751473
207	0x3fb6e298	1.4287901
208	0x3fb1c207	1.3887337
209	0x3fce6568	1.6124697
210	0xbf95aaaa	-1.1692708
211	0xc0206531	-2.5061762
212	0x3f991162	1.195843
213	0xbf1acf87	-0.6047291
214	0x3f857c27	1.0428513
215	0xbfe12cba	-1.7591774
216	0x3f294fdc	0.6613748
217	0x3f73d215	0.95242435
218	0x3f4e2307	0.805222
219	0xbf377701	-0.7166596
220	0xc02c15fd	-2.688842
221	0xc00bb157	-2.182699
222	0xbf723765	-0.94615775
223	0xbfe2913b	-1.7700571
224	0xbf8f7579	-1.1207725
225	0xbf997743	-1.1989521
226	0x3fe6647a	1.7999413
227	0xc02ca6e1	-2.6976855
228	0xc02749e0	-2.613884
229	0x3fbd4a98	1.4788389
230	0x3e9c67e6	0.30548018
231	0x3ffbd631	1.9674741
232	0x3f131e01	0.5746766
233	0x3f709a62	0.9398557
234	0xc0378ef0	-2.8680992
235	0x3f9ee16d	1.2412544
236	0xbf7ca5fd	-0.9869078
237	0x3eec0c77	0.4610326
238	0x3fb2b47a	1.3961327
239	0x3f0fa01b	0.56103677
240	0x3fb52e6a	1.415479
241	0xbfc9d14d	-1.5766999
242	0x3fb22fbc	1.3920817
243	0xc017e12a	-2.373118
244	0x4003fbf5	2.0622532
245	0xbfafe004	-1.3740239
246	0xbf802518	-1.001132
247	0x3e8c7671	0.27434114
248	0x3f2d8d7a	0.67794
249	0xbf376e3f	-0.716526
250	0xc00a2b0a	-2.158877
251	0x3ff2980f	1.8952655
252	0x3fc2cf05	1.5219427
253	0x3fdc005e	1.7187612
254	0xbef2e55f	-0.4744062
255	0x3f934d90	1.1508045

bias f4 [10]
0	0xbef7d43f	-0.48404118
1	0xbf9eb3a7	-1.2398576
2	0xbe861e4b	-0.26194987
3	0xbf4ac65e	-0.79208934
4	0xbea57540	-0.32316017
5	0xbe9957fb	-0.29949936
6	0xbf3dcad2	-0.74137604
7	0xbf3e0793	-0.7423031
8	0x3d0f73d6	0.03502258
9	0xbf1e7cc5	-0.61909133
