python/results/model_averaged.pth (torch, 27072 bytes, 4 tensors)

module.linear_sigmoid_stack.0.weight f4 [30, 196]
00000000: 39e3 dcbd 6933 e1bd 613c c4bd e974 b1bd
00000010: 25af 92bd e9a8 aabd 45e7 59bc 98f4 20bd
00000020: 6d60 c1bd 408d bfbd 8851 31bd 3d8b 83bd
00000030: 5136 62bc 89fc 99bd db50 fabd 6d5e efbd
00000040: a2c1 aabd bd91 4dbd e88d 103d a0d9 973d
00000050: 92b2 433e 664f ec3d cb92 b43d 6096 973d
00000060: cb15 1c3d cc9a 8e3d 6def 10bd e7bd e6bd
00000070: 9137 d5bd ea54 c6bc 7fbd 94bd c3d0 c7bc
00000080: 417c 0ebe 2afd ce3d ee4f 713e 1966 a33e
00000090: ccb9 863e 978c a13e 4691 1d3e fbf7 d3bd
000000a0: fe89 02bd f76d f03c 6776 82bc 8fa1 bfbd
000000b0: 37ea 50bd 2cc8 a0bd 6e07 c5bc ef92 273d
000000c0: f050 bb3d 6451 403e 5a3e 46be 96c2 8e3e
000000d0: 7497 093e f2d3 113d fecf 643e ec3e 0bbd
000000e0: b76b 42bd 1882 71bd d54f 97bc 4c04 783c
000000f0: bb40 633c 7518 b1bd 273b 20be b141 06bd
00000100: 4416 593e 5c63 4e3c bbc3 883e 82fa ac3e
00000110: d414 183f 14a2 d03d 355a a1bd 5374 82bc
00000120: e085 7d3c d87d 36be 0b93 75be 01cc 1fbd
00000130: e272 3bbe 01fc 0d3e d4ca 23bf 05eb e3be
00000140: 81ba c1bd aa35 053f 6ca0 1b3f 6c22 9bbc
00000150: 7a0c 1cbc 3804 0aba 642b 17bd 6ee8 f8bd
00000160: 77be fcbd b164 b0be d71f c63e 01e9 94be
00000170: 125e 30bf e3b1 e1be 2b4c a9be becb 7f3e
00000180: 01f4 fc3d 884b b0bd 03c7 c0bd a6a9 0abc
00000190: 5771 99be 2732 aabe ceee 2bbe f62f 0d3d
000001a0: f6e2 b63e 6664 e6bd 3326 27bf 2a1c 56bf
000001b0: 5946 5fbe 3a8c f5bd 7ee4 84bc 4933 13be
000001c0: 91a0 03bd ade4 43bc 321d cdbe ced0 08bf
000001d0: b23f 0cbe 90c2 2b3e 022c a73e 656b 13bf
000001e0: 7e25 33bf 51df 02bf a034 42be fafd 0a3e
000001f0: 7bfa 65bd 05dd 03be 0acd 61bd 6a44 fabc
00000200: 4a6e 92bd e3c5 c83e c139 633e 280c ef3d
00000210: 3e93 fb3c a8fc 02bf b4c1 b03d 27be ab3e
00000220: 9175 633e c3e1 3c3e a969 01be 5d6b e0bd
00000230: faef 54bc 8516 553d 01b3 9c3e a262 333f
00000240: 1bcf 1c3f f965 4c3f 14fa 863f 2798 813f
00000250: c45a 3c3f 8cd9 6e3f 1e4f 3d3f 58ff 4a3e
00000260: 1bd1 58be 19db a6bd 86b0 5ebb 704f babc
00000270: 992f 863e c99c 323e 827e 923e cc57 823e
00000280: f9c7 1f3f 80c0 ec3e b26e 223f 56ae 2b3f
00000290: ce57 063f 2948 05bd 79c1 c4bd e89b 8ebc
000002a0: 032b 36bd e6a4 85bd 9695 67be 0b0f 34be
000002b0: df8b 513e 3d97 5c3e 6447 d73e c9ee f93e
000002c0: 7bc6 cb3e d84b 243e cfc6 60be 3d94 06be
000002d0: 05af 54bd 3398 c1bd ac31 02be 1948 eabd
000002e0: 7c27 70bd e298 98bd 5ac6 57be 35cb 05be
000002f0: 648c b4bd eeff 41be dd7d a2bd 0796 26be
00000300: 585e 8fbd ef9d 57bc 1232 debc 9d06 edbd
00000310: 7db4 a7bd ae95 c2b9 4af0 24bb 90d3 35bc
00000320: c768 b8bd e0aa 94bd 97e2 f3bd fa69 b8bd
00000330: 6c67 473b 36b0 eebd c0d8 9abd 4a42 2bbd
00000340: 5d6c ccbd 171a 25bd 9f2a 8cbd 3911 e4bc
00000350: aa27 fabd d812 88bd 38b1 14be ad38 f6bd
00000360: e0e6 dd3d ca7b 25bc 456a 74be 1f88 a9be
00000370: 5ec5 61be 5c01 96be f175 0cbe 5f45 39bd
00000380: d96a 85bd ec83 15bd d677 a3bd ac19 433d
00000390: ec1d 323e 48c0 ae3e bfac 9e3e 3a55 b13e
000003a0: a571 1c3f e521 ee3e 5428 f2bd 4d54 c7be
000003b0: c381 423a f623 92bc 0b83 9fbb 21b8 a2bd
000003c0: 3b99 353e 9082 8c3e e6fe af3c e164 873d
000003d0: 0fbb 4d3e 69a0 63bd a9cd a8bd 6540 f63e
000003e0: f83c b53e 5747 893e f763 5e3e cf65 28bd
000003f0: 2622 34bd 6232 f1bd 5bd0 e43d aecc d53d
-0.10785527 -0.10996134 -0.09581829 -0.08664877 -0.071623124 -0.08332998 -0.013299768 -0.039295763
-0.0944222 -0.09353113 -0.043290645 -0.06423042 -0.013806895 -0.075188704 -0.12222453 -0.11687932
-0.08337714 -0.050187815 0.035291582 0.074145555 0.19111088 0.115385816 0.08817061 0.07401729
0.03810672 0.06963119 -0.035384584 -0.1126669 -0.10410989 -0.024210412 -0.07262706 -0.024391538
-0.13914587 0.10106881 0.23565647 0.31913832 0.26313627 0.31552574 0.15387449 -0.10350033
-0.03186988 0.02934931 -0.0159256 -0.09356987 -0.051004615 -0.0785068 -0.024051394 0.04091161
0.09146297 0.18781048 -0.19359723 0.27882832 0.13436681 0.035602517 0.22344968 -0.033995554
-0.047466006 -0.058961958 -0.018470684 0.015137743 0.013870413 -0.08647243 -0.15647565 -0.032777492
0.211999 0.012596931 0.2671183 0.33784872 0.5940678 0.10187164 -0.07878534 -0.015924608
0.015473813 -0.17821443 -0.23981874 -0.039012913 -0.18305543 0.13865663 -0.63981366 -0.44515243
-0.09459401 0.5203501 0.6079166 -0.018937312 -0.009524459 -0.0005264911 -0.036906615 -0.121537074
-0.12341016 -0.3445182 0.38696167 -0.29084018 -0.6889354 -0.4408103 -0.33065924 0.24980065
0.123512276 -0.086081564 -0.094129585 -0.008463299 -0.29969284 -0.33241388 -0.16790316 0.034469567
0.35720032 -0.11249618 -0.6529266 -0.83636725 -0.21804179 -0.11989637 -0.016222235 -0.14375032
-0.03213555 -0.011956376 -0.40061337 -0.5344361 -0.13696173 0.16773438 0.32650763 -0.57585746
-0.69979084 -0.51122004 -0.18965387 0.13573447 -0.05614708 -0.12877281 -0.05512718 -0.0305502
-0.07149942 0.39213476 0.2219 0.116722405 0.030709859 -0.5116677 0.08630696 0.33543512
0.22212817 0.18445496 -0.12637962 -0.10957978 -0.012996668 0.05202343 0.3060532 0.70072377
0.6125352 0.798431 1.0545068 1.0124558 0.73576 0.933007 0.7394885 0.19823968
-0.21173517 -0.08147258 -0.0033979728 -0.022742957 0.2620819 0.17442621 0.28612143 0.2545761
0.6241451 0.46240616 0.6345016 0.6706289 0.5247773 -0.03253952 -0.096072145 -0.017408326
-0.044474613 -0.065255925 -0.22615656 -0.17583863 0.20463513 0.21542068 0.42046654 0.4881499
0.39799866 0.16044557 -0.2195084 -0.13142486 -0.051924724 -0.09452858 -0.12714261 -0.11439533
-0.058631405 -0.07451035 -0.21071759 -0.13065799 -0.0881584 -0.18945286 -0.07934163 -0.16268168
-0.070004165 -0.013160213 -0.027123485 -0.11573527 -0.08188722 -0.00037114084 -0.0025167638 -0.011097804
-0.0900436 -0.07259154 -0.11908453 -0.090045884 0.0030426634 -0.11654703 -0.07560873 -0.041811265
-0.09981606 -0.040308084 -0.06844067 -0.027840244 -0.122145966 -0.06644219 -0.14520729 -0.12022529
0.108350515 -0.010100314 -0.23868664 -0.33111665 -0.22047946 -0.29297912 -0.13716866 -0.045232173
-0.0651452 -0.036502764 -0.07981841 0.047631904 0.17394227 0.34131074 0.3099117 0.34635335
0.6111091 0.46510234 -0.11824098 -0.38931504 0.00074198487 -0.017839413 -0.0048679165 -0.07945276
0.17734234 0.2744336 0.02148385 0.06611038 0.20090888 -0.0555729 -0.082423516 0.48096004
0.35398078 0.2681224 0.21717821 -0.041112717 -0.04397788 -0.11777188 0.11172553 0.1043943

module.linear_sigmoid_stack.0.bias f4 [30]
00000000: 61e7 333e f958 053e 6c31 313d ce35 0abe
00000010: 4fb7 f03d a61e aabe 96b6 b6be 5ad4 37be
00000020: 842c 953d 5cf9 52bd 24dd c139 7aa8 9ebd
00000030: 9578 dc3d bd78 98be 924c 8b3e 197a 253e
00000040: 0847 fcbd 7e5d 6b3c 4c7c 2a3e 8a0a 85be
00000050: 1b73 5ebe d687 c53d 2b1a 67bc a437 323c
00000060: 73ca 12be 04ba 0ebe 20c9 833e 999e c2bd
00000070: 3247 cebe e2d8 c43d
0.17568733 0.13022222 0.043260023 -0.13497087 0.11753713 -0.33226508 -0.35686177 -0.179521
0.07283881 -0.05150734 0.0003697659 -0.07746978 0.10765187 -0.29779616 0.27206856 0.16159858
-0.12318236 0.014365552 0.16648978 -0.25984603 -0.21723597 0.09645049 -0.01410536 0.010877524
-0.14335041 -0.13938147 0.25739384 -0.09502906 -0.40288693 0.096116796

module.linear_sigmoid_stack.2.weight f4 [10, 30]
00000000: c054 04c0 54cd 27c0 f4a9 debf 0ec3 29be
00000010: ec6c 523f b242 71bf 62b7 1abf 5881 5bc0
00000020: 0bda 943e f56b e5bf fdd7 54c0 8dc4 ec3f
00000030: 1169 cd3f bfcf 493f 0507 09bf 026f d93e
00000040: d9e7 30bf b9ac b23f e7eb 3540 c526 d5bf
00000050: ef71 1240 b140 2dbf 48c5 ffbf 0d84 ddbf
00000060: faaf c2bf 04a4 bbbe 2836 bbbf 5a2f 8fbe
00000070: df17 8e3d 018f ebbe 072e 2340 d4b6 02bf
00000080: 0f98 c1bf 0296 82c0 bb61 cebf 9bbc 4bc0
00000090: 766b 33bf 709a 793e dc4a 2d3f a82f f9bf
000000a0: 896e 1dbf 38f4 0e40 4d75 533f 2108 2abf
000000b0: 299f 993e 6f4b 5e3f bd74 b33f 72ab debf
000000c0: 6e04 febe a10e 93bf 9fea 3ac0 a646 8abf
000000d0: eae9 b73f c682 11c0 4e78 35bf a77f 2ac0
000000e0: 8920 b7bf ed71 0740 17ad d0bf 0a07 babf
000000f0: 313b 1ec0 6f08 dcbf eb12 bbbd b545 0fbf
00000100: 4cd9 7a3e e38d aa3e 64fd 993f 1b2f 1b40
00000110: 8851 a63f fca4 083e c7ef f5be e6a0 d6bf
00000120: 7e6b 86bf 42ea c0bf 6a18 573e a52a 47bf
00000130: 0d0b 62bf bb30 6bbf 2e69 9abd f071 a33d
00000140: ddc9 04c0 530c d2bf 39a9 68be 052b f03f
00000150: 96e8 e43f b3e5 1840 2ad1 0140 a845 4bbf
00000160: 69f3 7ebf e77e 22c0 c301 473f c4b5 03c0
00000170: b129 023d 2fad efbf 90dd 71bf f6be 8fbf
00000180: 281f 1ac0 046b 813f c2d2 29c0 df27 2ac0
00000190: 7f4b 1a3f 8f25 86bf f19c aa3f fff5 e13f
000001a0: 18e1 dabd f076 bdbd cea1 67bf c069 34bf
000001b0: 0aec 02c0 b3f3 903f 2dfb edbd e21e 093d
000001c0: c174 db3e 67f0 cfbe b305 23bf 0390 76bf
000001d0: 5560 ad3f e2c0 13c0 7e42 2e3f 0487 f03e
000001e0: ed84 b93e 867f 023f accf 29c0 305e 2c40
000001f0: 1c15 af3f a28e 87be 110f 0040 2c67 83bf
00000200: 1770 edbf 0679 47bf e0da 8d3f 8689 a2bf
00000210: bd56 e6bf 2560 c8bf b4d5 4e40 8a2c 7c3f
00000220: a39d 71c0 1e2f 7f3f 49de 753b d69f e4bf
00000230: ac02 68bf 2ef5 8bbf ec79 963f d8c3 18bf
00000240: a972 4d3f 0b70 96bf c498 63bf 29ce e1bf
00000250: 0fab 3a40 2e3c 4fbf 92e1 2cc0 2d08 cebf
00000260: f0de 383f 72ea 9dbf 928b 603e c1a7 91bf
00000270: be59 9d3f 163d 80bf 5a5c f43f 0b94 a2bf
00000280: 195f c13f 19ba 3cbf d405 3ec0 4c61 ffbe
00000290: 1906 bbbf e4b2 fcbf 8620 273f 672d 333e
000002a0: 3350 4ac0 f2a3 eb3f c816 853f f6bd fb3f
000002b0: 601f b73e 5620 c2bf 0560 7abf e5b5 8abf
000002c0: cc47 35bf e75f 9f3e 550a 213e 809c 19c0
000002d0: 2475 153f 8328 783f 8a9c 933f f6b6 0740
000002e0: be0c d93f 6335 e1bf 2580 ecbf 8766 17c0
000002f0: a38a f83d e14e 423f 33e7 31be f143 bebf
00000300: 0f09 603f ae85 a1bf e10b 56c0 36c1 09c0
00000310: 37d9 813f 140d 3fc0 1d1d 8f3e 648e 253f
00000320: 81c4 ffbe 8e12 f33c 5078 d1bf 816c 7d3f
00000330: cd7f efbf 0176 b93f eaf0 f1bf 49a7 833f
00000340: 5e8c cfbf fe23 fcbd f611 8ebf b971 8fbd
00000350: 476a e8be 67ca 88bf 408a d0bf 09dc 2b40
00000360: 94b0 0bc0 200e 143f c536 babf d611 de3f
00000370: b626 c9be 48c3 2e3f 37ac 34bf 7514 acbf
00000380: b56f 7fbf 769f cbbf e3fc 2ebe fa2f abbf
00000390: 7dcd 0bbf 4872 cabf 50f8 013f 96a7 0440
000003a0: 6dca c2bf 6f8d 75bf 6563 3740 402e 1fbf
000003b0: 6e5c 0a40 318b 65bf 0ff8 cbbf 1588 cd3f
000003c0: 2e35 863e 00cc 533f e1c0 dabf f31c 0cbf
000003d0: 2456 0dbf abe8 f53f f096 3f3f e1c9 a23f
000003e0: f65c 04c0 0376 8c3f ef27 e0bf 8d68 0abf
000003f0: 8a58 f5be a941 ce3f 0f20 0bc0 31d9 bbbf
-2.0676727 -2.6219072 -1.7395616 -0.16578314 0.8219745 -0.94242394 -0.6043607 -3.4297695
0.29072604 -1.7923571 -3.3256829 1.8497483 1.6047689 0.7883262 -0.53526336 0.42467505
-0.6910377 1.3958961 2.8425233 -1.6652457 2.288204 -0.67676836 -1.998208 -1.7305924
-1.5209954 -0.36648571 -1.4625902 -0.27965814 0.06938147 -0.4600754 2.5496843 -0.51060224
-1.512453 -4.0808115 -1.6123575 -3.1833866 -0.7008585 0.2437532 0.6769235 -1.9467669
-0.6149679 2.233656 0.8260086 -0.66418654 0.30004242 0.8683385 1.4020001 -1.7396071
-0.49612755 -1.1488839 -2.9205701 -1.080281 1.436826 -2.2736068 -0.70886695 -2.6640413
-1.4306804 2.1163285 -1.6302823 -1.4533398 -2.4723628 -1.7190074 -0.09134468 -0.5596574
0.24496955 0.33311376 1.2030454 2.42475 1.2993631 0.13344187 -0.48034498 -1.6767852
-1.0501554 -1.507149 0.21005407 -0.77799445 -0.8829811 -0.9187123 -0.07539593 0.07980716
-2.0748208 -1.6410011 -0.22720803 1.8763129 1.788348 2.3890197 2.0283914 -0.7940316
-0.99590164 -2.5389955 0.77737063 -2.057969 0.03177804 -1.8724726 -0.944787 -1.1230152
-2.4081516 1.0110784 -2.6534886 -2.6586835 0.6027145 -1.0480212 1.3329145 1.7653197
-0.106874645 -0.09251201 -0.9048127 -0.7047386 -2.0456567 1.1324371 -0.116201736 0.033476718
0.42862514 -0.406131 -0.6368057 -0.96313494 1.3545023 -2.3086476 0.6807021 0.4697801
0.36234227 0.50975835 -2.6533003 2.6932487 1.3678317 -0.26476008 2.0009196 -1.026586
-1.8549832 -0.7791904 1.108242 -1.2698219 -1.799522 -1.5654341 3.2317934 0.9850546
-3.7752464 0.9968127 0.0037516525 -1.7861278 -0.90629077 -1.0934198 1.1755958 -0.59673834
0.8025308 -1.1752943 -0.88904977 -1.764104 2.9166906 -0.809512 -2.7012677 -1.6096245
0.72215176 -1.2337172 0.21928242 -1.137932 1.2293012 -1.0018642 1.9090683 -1.2701429
1.5107147 -0.7372146 -2.9691057 -0.4987892 -1.4611236 -1.9742093 0.65284 0.17497788
-3.161145 1.8409407 1.0397577 1.9667346 0.35766125 -1.5166118 -0.97802764 -1.083676
-0.7081268 0.31127855 0.15726598 -2.400177 0.5838187 0.96936816 1.1532147 2.120542
1.6957014 -1.7594417 -1.8476607 -2.3656328 0.12135818 0.7590161 -0.17373352 -1.4864484
0.8751382 -1.2618921 -3.344475 -2.1524177 1.0144414 -2.9851732 0.279519 0.64670396
-0.49954608 0.029671934 -1.6364841 0.9899369 -1.8710877 1.4489137 -1.8901646 1.0285426
-1.6214712 -0.123115525 -1.1099231 -0.07004113 -0.45393583 -1.0686768 -1.629219 2.6853049
-2.1826525 0.57834053 -1.4547964 1.7349193 -0.39287347 0.68266726 -0.7057528 -1.3443743
-0.99779826 -1.5908039 -0.17088656 -1.3374016 -0.54610425 -1.5816126 0.5076952 2.0727286
-1.5218025 -0.95918936 2.8654416 -0.62179947 2.1618915 -0.89665514 -1.5935076 1.6057154
0.26212448 0.82733154 -1.7090112 -0.54731673 -0.55209565 1.921163 0.7483969 1.2717859
-2.068174 1.0973514 -1.7512187 -0.5406578 -0.47919112 1.6113788 -2.1738317 -1.4675657

module.linear_sigmoid_stack.2.bias f4 [10]
00000000: 2a95 5abf f331 8dbf ad83 90bf 7542 9bbf
00000010: 4d82 aebf 01f4 90bf 75ad 6ebf ff78 8cbf
00000020: 71a4 fabe 99d4 aabf
-0.85383856 -1.1030868 -1.1290184 -1.2129656 -1.3633515 -1.1324464 -0.93233424 -1.0974425
-0.48953584 -1.334613
