python/results/model.pth (torch, 97600 bytes, 4 tensors)

module.linear_sigmoid_stack.0.weight f4 [30, 784]
000000 dd 0c 03 3b 94 7d d0 bc ba 39 1d bd a6 1d 4a bd
       0.001999668 -0.025450505 -0.03838513 -0.04934468
000010 42 9a 03 bd ba 0f ed bc 33 44 8d bc a8 90 1b bc
       -0.032129534 -0.028938163 -0.017244434 -0.009494938
000020 9b 87 fb bb 66 8a d9 bc c7 0a 00 bd 51 84 0d bb
       -0.0076760775 -0.026555251 -0.031260278 -0.002159376
000030 96 db 40 3c 4c 14 47 bc 82 4f 64 bc a4 95 90 ba
       0.011771103 -0.012150835 -0.013934972 -0.0011030925
000040 d1 1c 0a bd 66 af ed 3b 40 66 47 bd b1 b8 8b 3c
       -0.033718888 0.007253575 -0.048681498 0.017055841
000050 f0 a3 5a 3c 1f 87 fb bc ec cf a2 bb d2 53 38 bd
       0.01334475 -0.03070408 -0.004968634 -0.045001812
000060 f6 a9 16 3a 98 8f c2 3b 81 63 81 3c 66 5b 99 b9
       0.0005747372 0.005937528 0.015794517 -0.0002925053
000070 4e 17 13 bc aa 81 cb bc 86 f3 3f bd f4 47 32 bc
       -0.008977724 -0.024842102 -0.0468631 -0.010881413
000080 66 49 26 bd 14 34 5e bc f6 f1 3f bd 94 d8 d2 bc
       -0.040597342 -0.013562221 -0.04686161 -0.025738038
000090 38 7e 95 bc f0 f6 a0 bb 11 f3 a3 bb 38 77 4f bc
       -0.018248662 -0.0049122497 -0.005003341 -0.012662701
0000a0 47 f8 4d bd 80 c5 82 bc a8 a2 1f bd 83 51 0b bd
       -0.050285604 -0.015963316 -0.03897348 -0.034013283
0000b0 1e 05 19 bd 2c 84 04 bd 19 fb 03 3c 39 3e 03 bd
       -0.037358396 -0.03235261 0.008055472 -0.032041762
0000c0 58 f9 3c bd 72 55 98 bc 3c 8f 9d ba 95 2a ff bc
       -0.04613623 -0.018595431 -0.0012020837 -0.031148234
0000d0 2e 53 9f 3c c0 b0 14 bd ec d9 52 3c 62 81 83 3c
       0.019448843 -0.036301374 0.012869339 0.016052905
0000e0 52 69 7a bc bd e9 8a 3c 21 34 8e 3c 00 a7 12 bd
       -0.015283899 0.016957158 0.017358841 -0.035803795
0000f0 90 92 35 bd eb 83 cf bc 33 c3 18 ba 43 10 25 3b
       -0.044329226 -0.025331458 -0.0005827427 0.0025186695
000100 b8 df 8a bc 40 82 44 bd 60 3d 81 bd a8 07 6c bd
       -0.01695238 -0.04797578 -0.063105345 -0.05762449
000110 6b 59 ad bd d4 1b ae bd 26 f1 bd bd 84 84 c3 bc
       -0.08464321 -0.085014015 -0.09274511 -0.0238669
000120 67 fd b6 bc 68 6f cc bc fa cb f4 bc c7 f5 f2 bc
       -0.022337629 -0.024955466 -0.02988242 -0.029658211
000130 6c 8a 86 bd 57 86 3e bd 19 1b 09 3b d8 df 1f bd
       -0.065693706 -0.046514835 0.0020920692 -0.039031833
000140 b2 09 a1 bc 4d 1e 08 bd cc 95 ba bc 6c 7d 92 bc
       -0.019657943 -0.033232022 -0.022776507 -0.017882071
000150 bc ec 50 3c 50 f1 89 39 b8 e1 bb bc 15 a1 df bb
       0.012751754 0.00026310468 -0.02293478 -0.0068246224
000160 65 15 fd bc da c4 f3 b9 ed 9c 3b bc 7e 6b bb bc
       -0.03089399 -0.00046495238 -0.011450988 -0.022878405
000170 66 83 d5 bc b7 7c 66 bd f4 5a eb 3c b6 94 01 3e
       -0.026063632 -0.05627128 0.028729893 0.12654385
000180 c7 88 fa 3d 79 c2 3a 3d 88 f6 18 3e 80 e3 4e 3e
       0.122331195 0.04559562 0.14937794 0.20203972
000190 b3 97 5d 3e 26 12 45 3e b6 7c 81 3d d3 21 34 3d
       0.216399 0.19245204 0.06322615 0.04397757
0001a0 7d 1f a0 3d b0 d8 3a 3b 8b 05 eb bc 14 f1 48 bd
       0.07818506 0.0028510503 -0.028689167 -0.049058035
0001b0 ff 5d 00 bd 43 31 97 3b 4a 93 de bc 56 5f 8f 3c
       -0.03133964 0.0046140268 -0.027169842 0.017501514
0001c0 52 f3 dd bc 30 a3 d7 3b 2a 48 03 bd a0 6a ba 3c
       -0.027093563 0.0065807328 -0.032051243 0.02275592
0001d0 2c c2 61 3d 3f 9b 79 3d 32 97 05 3e 17 13 da 3d
       0.055116817 0.06093907 0.13045958 0.10648172
0001e0 45 9f 54 3e bc d9 2b 3e 85 d1 d4 3d 94 47 7c 3e
       0.20763882 0.16782278 0.10391525 0.2463668
0001f0 fd 4d 3d 3e 18 13 94 3e de 3f 27 3d d5 55 73 3d
       0.18486781 0.28920817 0.040832393 0.059408028
000200 b6 d7 78 bd 75 89 b5 3d 26 69 91 3e 69 a4 26 3e
       -0.060752593 0.088641085 0.28400534 0.16273655
000210 0b 74 08 3e 59 b8 05 3e 9c 53 9a bc 1f f5 ce bd
       0.13325517 0.13058604 -0.018838696 -0.10105347
000220 eb c8 e2 bb f2 b7 cf bc 6a 9b 03 bc dc a2 e5 bc
       -0.006920924 -0.025356267 -0.008032659 -0.028031759
000230 5c e0 ba bc 40 87 3c 3c d4 c4 1c 3c 34 aa 65 bc
       -0.022812061 0.0115068555 0.009568412 -0.01401763
000240 99 d3 83 3d dd e7 28 3e da 2f 63 3e 94 f6 93 3e
       0.064368434 0.16494699 0.22186223 0.28899062
000250 af 76 91 3e 52 61 17 3e 0d a0 2c 3e 29 1a b9 3e
       0.2841086 0.14783219 0.1685793 0.3615277
000260 fd d7 21 3e 20 96 a3 3e 66 fb 8d bd 87 d8 11 bd
       0.15805049 0.31950474 -0.06932716 -0.035606887
000270 48 ca 37 be 99 ed a1 be 63 73 65 bd 8b c9 c2 3c
       -0.17948258 -0.31626585 -0.056018244 0.023777744
000280 25 ad 72 be cc a0 d0 bd 2d 15 23 be 1e 7e 24 be
       -0.23698862 -0.101869196 -0.15926047 -0.16063735
000290 b8 82 f5 bd c2 49 5e bd f6 de 3b bd ed 07 dc bc
       -0.11987823 -0.05426956 -0.04586693 -0.026859248
0002a0 e2 80 47 bd a2 4d ef 3b fc 40 16 3d 07 fb 17 3d
       -0.048706897 0.0073029557 0.036683068 0.037104633
0002b0 ba 8c b4 3c 57 3f 43 3e d2 4c 97 3e 21 df 35 3e
       0.02203976 0.19067131 0.29550797 0.17760898
0002c0 37 cb 69 3d ef 94 0f 3e 9e 46 5b 3e 94 e3 0c 3e
       0.057078566 0.14021657 0.21413657 0.13758689
0002d0 d0 b3 89 bc 3e 41 7a 3e ed d8 df bc f5 86 3b bc
       -0.016809374 0.2443895 -0.027325118 -0.0114457505
0002e0 0f 85 0c 3e ef e1 fd 3d 89 0a 0c 3e 62 0b 4b 3d
       0.13722633 0.12396609 0.13675894 0.049571402
0002f0 ca 5a 31 3d cc fa 36 3e 29 53 72 3c 9f 63 98 be
       0.043299474 0.17869109 0.014790335 -0.29763505
000300 2c de 20 be 4f 56 19 be 0e 0c 92 bc 91 28 8f bc
       -0.15709752 -0.1497433 -0.017828014 -0.017475398
000310 8f d0 8c bb 40 10 0c bc e0 bd c5 3c bb e9 a7 3d
       -0.004297323 -0.008548796 0.024138391 0.081988774
000320 38 72 47 3e 2d ca 43 3e 7a 7e 39 3e a6 cc 78 3c
       0.19477165 0.19120093 0.18114653 0.015185511
000330 d2 f3 a2 bc a2 8d 2d 3e 71 b2 18 3d 25 a3 e7 3d
       -0.019891653 0.1694856 0.03727955 0.11310414
000340 ac 5d e4 3e 75 97 df 3e 88 4d a2 3e 89 80 b3 3e
       0.44602716 0.4367024 0.31699777 0.35059002
000350 70 32 a1 3e a2 8c 90 3e c4 36 72 3e 0e 5e a7 3d
       0.31483793 0.28232294 0.23653704 0.081722364
000360 fc 15 5e 3e d5 90 15 3e fd 40 36 bd a0 92 18 be
       0.21688074 0.1460603 -0.04449557 -0.14899683
000370 59 87 14 be 83 f8 1b be 63 98 bb bd 97 3f 02 bd
       -0.14504756 -0.15231518 -0.09159925 -0.031798925
000380 34 17 d9 3b dd 8f b2 3b 78 ed 1a 3d 37 91 29 3e
       0.0066250805 0.0054492787 0.037824124 0.16559301
000390 3b f0 7a 3e e9 31 cf 3d 85 3f 94 3c ac 22 a5 3d
       0.24505703 0.101169415 0.018096695 0.08063254
0003a0 62 e3 c0 3d 46 12 1b be db 28 b5 3d 98 f1 e0 3d
       0.0941837 -0.1514369 0.08845683 0.1098358
0003b0 1b 79 f9 3d 98 9e ea 3d 9d 87 05 3f 9d 4b 49 3e
       0.12181302 0.114560306 0.52160054 0.1965775
0003c0 ae eb a2 3e 48 84 0a 3e b8 04 59 3e 88 78 85 3d
       0.31820434 0.13527024 0.21193206 0.0651713
0003d0 93 a9 63 3e 89 6f 40 3e f9 a2 3c 3e 05 97 e8 3d
       0.22232656 0.18792547 0.18421544 0.1135693
0003e0 1f e1 97 bd bb b4 40 be b7 4f 8d bd 08 27 4e bd
       -0.07415985 -0.18818943 -0.0689997 -0.05033019
0003f0 48 46 85 3c 94 87 99 bc 10 26 50 3d 2d 99 35 3e
       0.016268864 -0.018741407 0.05081755 0.17734213

module.linear_sigmoid_stack.0.bias f4 [30]
000000 ee 2a 80 3d 88 46 66 3d f2 5d 87 bb a1 a9 f7 bc
       0.06258188 0.056219608 -0.004131072 -0.030232253
000010 b2 f0 b0 3c 8a 65 8c 3d 35 ca c9 bd 9d 8e a9 bd
       0.021599147 0.068553045 -0.09853021 -0.082791544
000020 1d ac 0b be 24 4b 10 bc 7d 1a 01 bd d5 02 f9 bd
       -0.13639875 -0.008806977 -0.0315194 -0.12158743
000030 35 f4 15 3d d5 fd b1 3c 3a ae 69 3d 98 1f 82 bc
       0.036609847 0.021727482 0.05705092 -0.015884206
000040 69 c4 f5 3d be 15 8d bd d7 0b fd bd 76 de 05 3d
       0.12000353 -0.068889126 -0.12355774 0.03268286
000050 bb fb 2e 3e 4a 45 38 bd 6e 44 a0 bd 40 a1 7d 3d
       0.17088215 -0.044987954 -0.07825552 0.061921358
000060 3c c0 b5 3d a3 a1 95 bd fc eb 65 3d 26 e7 c0 3c
       0.088745564 -0.073062204 0.056133255 0.02354772
000070 4e 2f 38 3d 28 26 bf 3d
       0.04496699 0.093334496

module.linear_sigmoid_stack.2.weight f4 [10, 30]
000000 f4 46 ac 3f 77 d2 e9 bf e0 1e 43 bf a9 a9 b4 be
       1.3459153 -1.8267354 -0.76218987 -0.3528569
000010 dc cd 06 c0 ca f0 a0 bf b1 7d 1c c0 85 cf be 3f
       -2.1063147 -1.2573483 -2.4451716 1.490708
000020 94 47 dc 3f 73 6b 1f c0 ef f2 a5 3f 3e 6f 1f c0
       1.7209344 -2.4909332 1.2964762 -2.4911647
000030 49 db 65 3e 0b 34 a2 3f 49 72 c9 bf 37 e1 d7 bf
       0.22446932 1.2672132 -1.5738002 -1.6865605
000040 42 42 43 40 d1 62 d7 bf 37 f3 a1 bf 4c 2a 19 3f
       3.050919 -1.6827031 -1.2652348 0.59830165
000050 a7 87 9c bf a6 9e 0f 3d cf 82 66 3f 86 2b fb 3e
       -1.2228898 0.03506341 0.9004335 0.49056643
000060 a4 2c 0f bf c1 2b b6 bf 0a 07 18 c0 08 ef 2d bf
       -0.5592749 -1.4232103 -2.3754296 -0.6794286
000070 4c 6e 29 3f 29 97 f2 bf 8c 80 a8 bf 04 48 84 3f
       0.66183925 -1.895238 -1.3164229 1.0334477
000080 b8 7a 7b 3f 23 a2 13 c0 c7 fc 14 c0 d7 4a 84 bf
       0.9823413 -2.306771 -2.3279283 -1.0335339
000090 a5 7e cf bf 0c be 5b 3e 69 89 33 c0 8a 48 85 3f
       -1.6210524 0.21459216 -2.8052619 1.0412762
0000a0 4a 07 58 c0 46 0a 13 bf f6 b0 fa bf 41 78 02 3f
       -3.375445 -0.5743755 -1.9585254 0.5096474
0000b0 49 02 04 c0 60 70 08 c0 2e 8e 94 3e 79 1f b1 3d
       -2.0626395 -2.1318588 0.29014724 0.08648581
0000c0 f3 17 9d 3e 54 de 8b 3f 68 85 26 bf fd 92 18 3d
       0.30682334 1.0927224 -0.6504731 0.037249554
0000d0 0a 0d a3 be 55 13 07 3e 96 14 ba 3d 78 81 60 c0
       -0.31845886 0.13190968 0.09085958 -3.5079021
0000e0 45 50 8a 3f 92 f8 22 c0 ff 52 45 3f 3e 4e 0f 40
       1.0805746 -2.5464215 0.77079767 2.2391505
0000f0 4e 5a 44 3f 4c 58 bb bf 73 6f df 3f a9 4f ae 3f
       0.76700294 -1.4636321 1.7455887 1.361806
000100 f9 2c 7c 3f fe 0c 97 bf 9e f9 a0 bf 24 05 1b c0
       0.9850612 -1.180084 -1.2576177 -2.4221888
000110 2d 1d 28 40 f6 3d 2f 3f f2 6b 35 bf b6 02 aa be
       2.6267807 0.6845392 -0.70867836 -0.33205193
000120 3c f9 8d be f4 e2 e6 bf 12 51 df 3e 1f 9d 08 bf
       -0.27729213 -1.8038011 0.4361654 -0.5336475
000130 33 84 13 c0 11 3e 04 3e c9 9b a0 be df 24 28 c0
       -2.3049438 0.12914301 -0.31368855 -2.6272504
000140 d9 32 41 bf 33 3b 80 3e 6d 61 31 3f 3b ac ce bf
       -0.7546821 0.25045165 0.69289285 -1.614631
000150 37 9e 3a bf fc d9 a9 3f a8 c6 4f 3f b3 46 ea bf
       -0.72897667 1.3269649 0.811625 -1.8302826
000160 18 8d 5e 3f af 05 ef 3f 98 09 90 bf 95 12 80 3f
       0.8693404 1.867361 -1.1252928 1.0005671
000170 27 85 e4 bf 21 90 15 3f 4a 7c 11 bf 41 1f 15 bf
       -1.7853135 0.5842305 -0.56830275 -0.58250815
000180 d3 3e 29 3f 52 03 d2 bf 3a 2b 68 bf 09 ed b8 bf
       0.6611149 -1.6407263 -0.9069096 -1.4447337
000190 1d 28 f9 bf 81 67 d1 bf 8f 2b 81 bf 91 84 df bf
       -1.9465367 -1.6359712 -1.0091418 -1.7462331
0001a0 45 c5 62 be 2d de e3 3e a6 21 cd bd 2f 80 29 c0
       -0.22145565 0.44505444 -0.100161836 -2.6484487
0001b0 47 51 08 40 0a 1f 70 3f b3 d0 db 3e 9b 1c 36 bf
       2.1299608 0.9379736 0.42932662 -0.711374
0001c0 51 8c bd bf ef 5b b4 3f 9b 6c 10 c0 d7 be a1 bf
       -1.4808446 1.4090556 -2.2566288 -1.2636365
0001d0 6f 92 8a bf 86 fa e3 3f 86 54 0f 3e 4c 18 95 3f
       -1.0825938 1.7810829 0.13997087 1.164804
0001e0 bb db 98 bf b1 f1 d2 bc 4e 5d 78 3f 6b bc c1 bf
       -1.1942056 -0.025750013 0.9701737 -1.5135626
0001f0 bb d3 f7 3f f3 8d 10 c0 fb f8 02 3f 79 f7 d5 3d
       1.936149 -2.258664 0.51161164 0.10447592
000200 75 18 04 c0 e9 18 21 3d dc 57 e8 3f 64 de 19 3f
       -2.0639927 0.039330397 1.8151813 0.60104966
000210 4a cf 15 40 10 66 33 3f dd b6 00 40 84 92 b1 3f
       2.340777 0.7007761 2.011161 1.3872838
000220 2f cd f1 3d 0f 02 82 bf b9 ea f7 3e 68 0c 94 bd
       0.11806714 -1.0156878 0.48421267 -0.07228929
000230 42 86 bd 3f d1 83 41 c0 58 e5 e1 3f 37 f8 a3 be
       1.4806597 -3.0236704 1.7648115 -0.3202531
000240 47 ce 32 c0 da f5 7a bf 01 e3 c5 bd d5 5f f0 bf
       -2.7938402 -0.9803139 -0.09662438 -1.8779246
000250 18 fa a6 3f 3b b5 45 c0 5b 57 d3 bf ca 65 e4 bf
       1.3045073 -3.0891864 -1.6511034 -1.7843564
000260 8f ab 94 3d 5e c7 93 3f b0 3d b8 3f 43 f7 b3 be
       0.07259285 1.1545217 1.4393826 -0.35149583
000270 dc 8f eb 3f a3 36 87 3f ff 75 8a 3f fb 80 b8 bf
       1.8403277 1.0563549 1.081726 -1.4414362
000280 d6 ec c5 bf bd 2d 1e 40 77 83 c2 bf 45 e2 eb 3f
       -1.5462902 2.4715416 -1.519637 1.8428427
000290 90 12 cd bf 9b 7b aa be 0c 8a 28 c0 55 3a d5 bf
       -1.602129 -0.33297428 -2.6334257 -1.6658427
0002a0 d2 73 70 bf 92 a6 b4 3b c6 30 ad bf e5 2d ab be
       -0.9392673 0.005513021 -1.353051 -0.33433452
0002b0 93 2b fb bf a8 e5 5b 3f a2 ec c2 3d 52 0e 0b bf
       -1.9622673 0.858973 0.095177904 -0.54318726
0002c0 cc 65 c3 bf 87 2f 93 bf 25 a0 77 bf 10 ed 31 bf
       -1.5265441 -1.1498879 -0.96728736 -0.69502354
0002d0 8e 36 80 3f 8d 1b 9f 3e 20 44 f3 3f 02 97 59 bf
       1.0016649 0.31075707 1.9005165 -0.84996045
0002e0 67 9a e0 bf c5 d6 94 bf 3b 7d 97 bf af 15 12 c0
       -1.754712 -1.1628042 -1.1835092 -2.2825735
0002f0 da aa 05 c0 72 79 c2 be 55 cd d4 3f 86 55 58 3f
       -2.088553 -0.3798328 1.6625162 0.845055
000300 34 cd 00 c0 ba 30 08 bf a5 6f 67 3f e9 a1 e7 be
       -2.0125246 -0.5319935 0.9040473 -0.45240715
000310 b9 87 b1 be f5 28 98 3f 46 7a 29 c0 39 6a 5f be
       -0.3467386 1.1887499 -2.648088 -0.21817864
000320 e3 6a 46 3d 68 83 bd 3f 2c 8c e8 bf 58 60 d8 3f
       0.04844178 1.4805727 -1.8167777 1.6904402
000330 b7 61 bf 3e e9 30 bc 3f dc b1 6f bf 37 d8 1e 3f
       0.37379238 1.4702426 -0.93630767 0.6204867
000340 14 3f 12 c0 1d 1a 1b c0 68 7b eb bf 57 82 04 c0
       -2.2851 -2.4234688 -1.8397036 -2.0704553
000350 6c 74 26 c0 6e 62 c8 bf 67 cc cf be 72 1b 2b bf
       -2.6008558 -1.5655038 -0.40585634 -0.66838753
000360 06 7d cb 3f ff 65 90 bf 75 e1 81 bf 39 46 23 3e
       1.5897529 -1.1281127 -1.0146929 0.15944757
000370 1f ed a5 bf 6d fe f2 bc 12 91 b6 3f 83 1b b6 3e
       -1.2962989 -0.029662335 1.4263022 0.35567865
000380 44 08 04 c0 dc 6f 14 3f f3 e8 61 bd c8 cc 00 40
       -2.0630045 0.57983184 -0.0551538 2.0124989
000390 f3 66 a4 bf 64 11 45 3f b7 9d 15 3f a6 e2 9f bf
       -1.2843918 0.7697966 0.5844378 -1.2491043
0003a0 88 cd ef bf 5e 33 14 c0 c6 3a 23 3f 6c 24 c5 3f
       -1.8734598 -2.3156352 0.63761556 1.540174
0003b0 fe af f8 3e d2 3e df 3e c0 7e f5 bf 9f 3e af 3f
       0.4857177 0.43602616 -1.9179306 1.3690985
0003c0 c8 47 09 c0 17 e8 b9 bd 10 9a 76 bf 53 09 a2 3f
       -2.1450062 -0.09077471 -0.9632883 1.2659096
0003d0 83 31 81 3e d1 98 36 bf 90 7b e1 bf 62 d5 9b 3f
       0.25233087 -0.7132693 -1.7615833 1.2174494
0003e0 05 6a 11 bf 06 78 6d 3f 63 93 65 3e 25 48 86 3f
       -0.568024 0.92761266 0.22419505 1.0490767
0003f0 b8 f3 94 bf 5f f2 d6 bf 59 1b 4b be f4 6b da 3f
       -1.1636877 -1.6792716 -0.19834651 1.7064195

module.linear_sigmoid_stack.2.bias f4 [10]
000000 fd 6c 9e bf ad 03 c0 bf a1 0a 5a bf ce 67 2d bf
       -1.237701 -1.5001122 -0.8517247 -0.6773652
000010 75 bc 9a bf 01 5c 83 bf 0a 57 85 bf 49 ad 8b bf
       -1.2088763 -1.0262452 -1.0417187 -1.0912257
000020 58 5c 2d bf bc a1 7e bf
       -0.6771903 -0.9946554
